#######################################################################
#                                                                     #
#                              generator                              #
#                                                                     #
#######################################################################
----------------------------------------------------------------
        Layer (type)               Output Shape         Param #
================================================================
            Conv2d-1           [-1, 64, 32, 32]          15,616
            Conv2d-2           [-1, 64, 32, 32]          36,928
       BatchNorm2d-3           [-1, 64, 32, 32]             128
            Conv2d-4           [-1, 64, 32, 32]          36,928
       BatchNorm2d-5           [-1, 64, 32, 32]             128
     residualBlock-6           [-1, 64, 32, 32]               0
            Conv2d-7           [-1, 64, 32, 32]          36,928
       BatchNorm2d-8           [-1, 64, 32, 32]             128
            Conv2d-9           [-1, 64, 32, 32]          36,928
      BatchNorm2d-10           [-1, 64, 32, 32]             128
    residualBlock-11           [-1, 64, 32, 32]               0
           Conv2d-12           [-1, 64, 32, 32]          36,928
      BatchNorm2d-13           [-1, 64, 32, 32]             128
           Conv2d-14           [-1, 64, 32, 32]          36,928
      BatchNorm2d-15           [-1, 64, 32, 32]             128
    residualBlock-16           [-1, 64, 32, 32]               0
           Conv2d-17           [-1, 64, 32, 32]          36,928
      BatchNorm2d-18           [-1, 64, 32, 32]             128
           Conv2d-19           [-1, 64, 32, 32]          36,928
      BatchNorm2d-20           [-1, 64, 32, 32]             128
    residualBlock-21           [-1, 64, 32, 32]               0
           Conv2d-22           [-1, 64, 32, 32]          36,928
      BatchNorm2d-23           [-1, 64, 32, 32]             128
           Conv2d-24           [-1, 64, 32, 32]          36,928
      BatchNorm2d-25           [-1, 64, 32, 32]             128
    residualBlock-26           [-1, 64, 32, 32]               0
           Conv2d-27           [-1, 64, 32, 32]          36,928
      BatchNorm2d-28           [-1, 64, 32, 32]             128
           Conv2d-29           [-1, 64, 32, 32]          36,928
      BatchNorm2d-30           [-1, 64, 32, 32]             128
    residualBlock-31           [-1, 64, 32, 32]               0
           Conv2d-32           [-1, 64, 32, 32]          36,928
      BatchNorm2d-33           [-1, 64, 32, 32]             128
           Conv2d-34           [-1, 64, 32, 32]          36,928
      BatchNorm2d-35           [-1, 64, 32, 32]             128
    residualBlock-36           [-1, 64, 32, 32]               0
           Conv2d-37           [-1, 64, 32, 32]          36,928
      BatchNorm2d-38           [-1, 64, 32, 32]             128
           Conv2d-39           [-1, 64, 32, 32]          36,928
      BatchNorm2d-40           [-1, 64, 32, 32]             128
    residualBlock-41           [-1, 64, 32, 32]               0
           Conv2d-42           [-1, 64, 32, 32]          36,928
      BatchNorm2d-43           [-1, 64, 32, 32]             128
           Conv2d-44           [-1, 64, 32, 32]          36,928
      BatchNorm2d-45           [-1, 64, 32, 32]             128
    residualBlock-46           [-1, 64, 32, 32]               0
           Conv2d-47           [-1, 64, 32, 32]          36,928
      BatchNorm2d-48           [-1, 64, 32, 32]             128
           Conv2d-49           [-1, 64, 32, 32]          36,928
      BatchNorm2d-50           [-1, 64, 32, 32]             128
    residualBlock-51           [-1, 64, 32, 32]               0
           Conv2d-52           [-1, 64, 32, 32]          36,928
      BatchNorm2d-53           [-1, 64, 32, 32]             128
           Conv2d-54           [-1, 64, 32, 32]          36,928
      BatchNorm2d-55           [-1, 64, 32, 32]             128
    residualBlock-56           [-1, 64, 32, 32]               0
           Conv2d-57           [-1, 64, 32, 32]          36,928
      BatchNorm2d-58           [-1, 64, 32, 32]             128
           Conv2d-59           [-1, 64, 32, 32]          36,928
      BatchNorm2d-60           [-1, 64, 32, 32]             128
    residualBlock-61           [-1, 64, 32, 32]               0
           Conv2d-62           [-1, 64, 32, 32]          36,928
      BatchNorm2d-63           [-1, 64, 32, 32]             128
           Conv2d-64           [-1, 64, 32, 32]          36,928
      BatchNorm2d-65           [-1, 64, 32, 32]             128
    residualBlock-66           [-1, 64, 32, 32]               0
           Conv2d-67           [-1, 64, 32, 32]          36,928
      BatchNorm2d-68           [-1, 64, 32, 32]             128
           Conv2d-69           [-1, 64, 32, 32]          36,928
      BatchNorm2d-70           [-1, 64, 32, 32]             128
    residualBlock-71           [-1, 64, 32, 32]               0
           Conv2d-72           [-1, 64, 32, 32]          36,928
      BatchNorm2d-73           [-1, 64, 32, 32]             128
           Conv2d-74           [-1, 64, 32, 32]          36,928
      BatchNorm2d-75           [-1, 64, 32, 32]             128
    residualBlock-76           [-1, 64, 32, 32]               0
           Conv2d-77           [-1, 64, 32, 32]          36,928
      BatchNorm2d-78           [-1, 64, 32, 32]             128
           Conv2d-79           [-1, 64, 32, 32]          36,928
      BatchNorm2d-80           [-1, 64, 32, 32]             128
    residualBlock-81           [-1, 64, 32, 32]               0
           Conv2d-82           [-1, 64, 32, 32]          36,928
      BatchNorm2d-83           [-1, 64, 32, 32]             128
           Conv2d-84          [-1, 256, 32, 32]         147,712
     PixelShuffle-85           [-1, 64, 64, 64]               0
    upsampleBlock-86           [-1, 64, 64, 64]               0
           Conv2d-87          [-1, 256, 64, 64]         147,712
     PixelShuffle-88         [-1, 64, 128, 128]               0
    upsampleBlock-89         [-1, 64, 128, 128]               0
           Conv2d-90          [-1, 3, 128, 128]          15,555
================================================================
Total params: 1,549,443
Trainable params: 1,549,443
Non-trainable params: 0
----------------------------------------------------------------
Input size (MB): 0.01
Forward/backward pass size (MB): 71.88
Params size (MB): 5.91
Estimated Total Size (MB): 77.80
----------------------------------------------------------------
###########################################################################
#                                                                         #
#                              discriminator                              #
#                                                                         #
###########################################################################
----------------------------------------------------------------
        Layer (type)               Output Shape         Param #
================================================================
            Conv2d-1           [-1, 64, 32, 32]           1,792
            Conv2d-2           [-1, 64, 16, 16]          36,928
       BatchNorm2d-3           [-1, 64, 16, 16]             128
            Conv2d-4          [-1, 128, 16, 16]          73,856
       BatchNorm2d-5          [-1, 128, 16, 16]             256
            Conv2d-6            [-1, 128, 8, 8]         147,584
       BatchNorm2d-7            [-1, 128, 8, 8]             256
            Conv2d-8            [-1, 256, 8, 8]         295,168
       BatchNorm2d-9            [-1, 256, 8, 8]             512
           Conv2d-10            [-1, 256, 4, 4]         590,080
      BatchNorm2d-11            [-1, 256, 4, 4]             512
           Conv2d-12            [-1, 512, 4, 4]       1,180,160
      BatchNorm2d-13            [-1, 512, 4, 4]           1,024
           Conv2d-14            [-1, 512, 2, 2]       2,359,808
      BatchNorm2d-15            [-1, 512, 2, 2]           1,024
           Conv2d-16              [-1, 1, 4, 4]             513
================================================================
Total params: 4,689,601
Trainable params: 4,689,601
Non-trainable params: 0
----------------------------------------------------------------
Input size (MB): 0.01
Forward/backward pass size (MB): 1.84
Params size (MB): 17.89
Estimated Total Size (MB): 19.74
----------------------------------------------------------------
###############################################################################
#                                                                             #
#                              feature_extractor                              #
#                                                                             #
###############################################################################
----------------------------------------------------------------
        Layer (type)               Output Shape         Param #
================================================================
            Conv2d-1           [-1, 64, 32, 32]           1,792
              ReLU-2           [-1, 64, 32, 32]               0
            Conv2d-3           [-1, 64, 32, 32]          36,928
              ReLU-4           [-1, 64, 32, 32]               0
         MaxPool2d-5           [-1, 64, 16, 16]               0
            Conv2d-6          [-1, 128, 16, 16]          73,856
              ReLU-7          [-1, 128, 16, 16]               0
            Conv2d-8          [-1, 128, 16, 16]         147,584
              ReLU-9          [-1, 128, 16, 16]               0
        MaxPool2d-10            [-1, 128, 8, 8]               0
           Conv2d-11            [-1, 256, 8, 8]         295,168
             ReLU-12            [-1, 256, 8, 8]               0
================================================================
Total params: 555,328
Trainable params: 555,328
Non-trainable params: 0
----------------------------------------------------------------
Input size (MB): 0.01
Forward/backward pass size (MB): 3.44
Params size (MB): 2.12
Estimated Total Size (MB): 5.57
----------------------------------------------------------------
